model_dict.pt (torch, 70125 bytes, 7 tensors)

weight f4 [128, 46]
00000000: c37c 76be 5a1b ea3d 4428 0c3d f60c 31bd
00000010: 13d2 b43d b601 cabd 58bc 96bd 8763 013f
00000020: bee1 e2bd f264 31bc 7587 cf3c 2584 70bd
00000030: 3471 213e 7948 57bd a6f8 a43c 2e5c 85be
00000040: de77 473e ef34 f6bd 66ef b03d eebc 0cbe
00000050: d9b0 febd 1d96 4ebd 7403 363d 1676 493e
00000060: bcb8 85bc 1eb6 cc3d 96eb cebd b8aa 0d3c
00000070: bfa8 16be 9ff5 033c 54ca 8abd 29bc 2bbc
00000080: a279 53be 67ad 30be a384 3dbe 91f1 80bd
00000090: c661 19be dfaf 19bc 9870 2cbe a649 323e
000000a0: 44fa e23d 8706 be3c f70e 01be 03f4 e23d
000000b0: f9e1 91bd f85e b9bd a139 13bd b26c 633d
000000c0: 08bd de3c 346f 04be e8c2 493e cbd9 b53d
000000d0: 9c8c efbd fc72 0b3e acad 5c3e deaa 3ebe
000000e0: c57c aabd 22ba 4a3b 5080 9fbd ca00 babd
000000f0: 82f8 523e 781b 4a3c 4b91 24be 8e3e 6cbd
00000100: 0bae cb3d 028e 393d 2aae 8a3d 4f12 443e
00000110: 4bfd e83d 5c20 e4bd 03ca 863d 2538 90bd
00000120: 8cc4 923d 9387 47bd e376 97ba a0f1 903d
00000130: e84a 76bd 5c87 973d 82d6 41bd 81e8 133e
00000140: f2e0 c83d bf97 913d 1281 dd3d 8e2f 2c3d
00000150: 9597 b83b 36ff ba3d aca2 4ebd 97f3 efbd
00000160: bcc8 c33d 9915 9abd 3a19 343e e54d 47be
00000170: 8e41 c1bd 1de5 4dbe 10d5 c8bd 4a3d 0ebe
00000180: 2f6f 38be 8f39 18bc f68b 1ebd 05c2 20bd
00000190: 7a8c 49be 2ac9 fdbc 435e 58be 1eca 873e
000001a0: 1b94 92bd f5e7 c63d 0e28 853e 5cda a1bd
000001b0: 6cdf 55be e35d 9dbe 8509 0b3e 48eb d43d
000001c0: 7233 703e cc39 64bd 9d56 453e 4b40 69be
000001d0: 6cf9 dabd d28b 093d 6b04 14be 112d 8dbe
000001e0: 3efd 2ebe 429b 9dbd b7b1 06bd 3686 99bd
000001f0: 8c0f 31be 3d26 0bbe f6c4 c1bd 2f24 9bbd
00000200: 389a 3dbe 4a6f 33be 6e0c 0dbe b246 1e3d
00000210: 06bc 0ebc 8439 94bd f9da b03d a40d 05bd
00000220: c903 2cbe 740c 33be 07d1 c1bd cd8c 2a3e
00000230: 052e acbd 64d1 013e 02cd 87be 43bf 5d3e
00000240: 1cbb 60bd 5f9b 3fbe 6064 06bb dc0b 82bd
00000250: e5fb a5bd ba30 053e 8412 05be ccbb 473d
00000260: 8a44 d83e e0fc aabe a456 b7bb 5132 f9bd
00000270: 9ee9 4cbc b167 a73d 535b 843d 309f 313d
00000280: 7ff0 753e 896c 05be f89a c83c 31fe a2bd
00000290: 85fe 433d 4edc a53d 47d6 9bbd 7561 363d
000002a0: a206 1cbb 48ae 333b d6e8 0abe 97c5 1f3e
000002b0: 870e 7bbe 4365 123e fd29 e3bd 34b7 d43d
000002c0: 3f14 0a3b 684b 19be 546a 953d 7c5e f93c
000002d0: 1512 9e3d db7b 04be 2231 99bd 2f5c 24be
000002e0: 8392 ab3d e9a9 0ebe b37d 06be 1095 85bd
000002f0: ad8d debc 7801 943e aff0 f13d 36e7 1bbb
00000300: 6808 9d3e 6bd4 0f3e f0f4 513e afdb 3dbe
00000310: 1b9c 233d fb1b dc3d f074 0e3d 087b 893d
00000320: 66d9 01be 4471 dfbd c90f 35be 85e3 ccbc
00000330: d63f 44be e48a f2bc 1208 cf3d e9b2 af3d
00000340: d666 5c3e 808c 29bc cb33 83bd bf79 33be
00000350: af0b 16be 12f8 133e 62ad ef3d f854 a63d
00000360: 5e44 e03d ea4b 423e 4fe1 a9bd 6f17 d7bd
00000370: d68f 933d 0acb bbbd 5a9b fb3c 7354 ca3d
00000380: 5498 8bbd edf6 283e e939 533c 83d5 383d
00000390: ed36 353e a006 22be 9baf e7be 9bf9 e93c
000003a0: 1ca7 3bbb 2dcb 7a3d a169 2f3e 8c7c 97be
000003b0: 2184 dbbc 45ba d23c 7088 833a 103b 6d3e
000003c0: a5b3 a33d 3f20 85be dace a03d efa7 a5bd
000003d0: f5df 0cbe 1703 0fbe fb79 37bd e00d 203d
000003e0: 52cb ca3d 7ac7 8e3d dcd9 703c 33ee 013e
000003f0: 6a6d 67bd 850a cfbc d59e 583e 9324 893d
-0.2407103 0.11430998 0.034218088 -0.04322525 0.08829131 -0.098636076 -0.073601425 0.5054249
-0.11078213 -0.01082729 0.025333146 -0.058719773 0.1576584 -0.05255935 0.020138096 -0.2604689
0.1947932 -0.12021815 0.08639412 -0.13743946 -0.12436075 -0.050436128 0.044436887 0.19673952
-0.01632344 0.099956736 -0.10103528 0.00864666 -0.14712809 0.008054166 -0.06776872 -0.010481873
-0.20651868 -0.17253648 -0.18507628 -0.06296075 -0.14978704 -0.00938031 -0.16839826 0.17410907
0.11082891 0.023196472 -0.12603365 0.11081698 -0.07123179 -0.09051317 -0.03594363 0.05552358
0.027189746 -0.12933046 0.19703257 0.08879431 -0.11696741 0.13618082 0.21550626 -0.18619868
-0.08324579 0.0030933698 -0.077881455 -0.09082182 0.2060261 0.012335651 -0.1607105 -0.057676844
0.099453054 0.045301445 0.067715004 0.19147609 0.11376437 -0.111389846 0.065814994 -0.07041959
0.071663946 -0.048713278 -0.0011555817 0.07077336 -0.06013003 0.073988646 -0.04732371 0.14444162
0.0980853 0.071090214 0.10815634 0.04203754 0.0056333044 0.09130709 -0.050448105 -0.11716383
0.095597714 -0.07523651 0.17587748 -0.19463308 -0.09436332 -0.20106931 -0.098062634 -0.13890567
-0.18011163 -0.009291067 -0.038707696 -0.03924753 -0.19682494 -0.030979712 -0.21129708 0.2652139
-0.07157155 0.09712211 0.26007122 -0.07902977 -0.2088601 -0.30735692 0.1357785 0.10396439
0.23457125 -0.055719182 0.19271322 -0.22778432 -0.10692105 0.03358061 -0.1445481 -0.27573445
-0.17088792 -0.07695629 -0.032884326 -0.07496302 -0.17291087 -0.13588805 -0.094613954 -0.07575261
-0.18515861 -0.17522922 -0.13774273 0.03864164 -0.0087118205 -0.07237533 0.08635516 -0.03248371
-0.16798319 -0.17485219 -0.09463697 0.16655274 -0.08407215 0.12677532 -0.26523596 0.21654992
-0.05486594 -0.18711613 -0.0020506606 -0.06349918 -0.08104686 0.13006869 -0.12995344 0.04876308
0.4223979 -0.33396053 -0.005595045 -0.121678 -0.012506871 0.081740744 0.06462731 0.043364704
0.24017523 -0.13029684 0.024487957 -0.079586394 0.04785015 0.080986604 -0.076092295 0.044526536
-0.0023807664 0.0027417112 -0.13565382 0.15602718 -0.2451726 0.14296441 -0.11091993 0.10386506
0.0021069197 -0.14970171 0.07295671 0.030440561 0.077182926 -0.12937872 -0.074800745 -0.1605079
0.08377554 -0.13932003 -0.13133888 -0.06522572 -0.027167166 0.2890737 0.11813485 -0.0023788936
0.30670476 0.14045875 0.20503592 -0.18540834 0.039943796 0.10747524 0.03477949 0.067129195
-0.12680587 -0.109102756 -0.17681803 -0.025010834 -0.19164976 -0.029607244 0.10108961 0.08579046
0.21523604 -0.010348439 -0.06406363 -0.17526911 -0.14652894 0.144501 0.11702992 0.08121675
0.1095054 0.18974271 -0.08294927 -0.105025165 0.07205169 -0.09169586 0.030713726 0.09879389
-0.06816164 0.16500445 0.012892225 0.045125496 0.17696734 -0.1582284 -0.45251164 0.028561404
-0.002863354 0.06122892 0.17130138 -0.2958721 -0.026796402 0.025723586 0.0010035168 0.23167062
0.07993249 -0.26001164 0.07851954 -0.080886714 -0.13757308 -0.13966022 -0.044794064 0.039075732
0.099020615 0.06971641 0.014700379 0.12688522 -0.05650083 -0.02527357 0.2115434 0.06696429

bias f4 [128]
00000000: 8e53 323d 2eb2 e13e c62e f2bd ed6c 883e
00000010: adbd c23e 990a b53e a73d 643e e2ea 9dbd
00000020: 7462 923e cc64 b03f d7a3 d83e 07ef 8a3f
00000030: 4534 0f3e e9f4 e43d 5bc1 703e 0048 b43e
00000040: c4e5 083e 5fcb a73e 057d ab3e efa7 003e
00000050: 1c69 1a3f c33d bd3d fb3c 9d3e 51be db3e
00000060: a03a f03e cebf 473e c131 3a3f 0d69 963e
00000070: c1c1 733e 23e1 003e 4504 adbd 3894 2d3d
00000080: e581 8c3e 5c50 503f b7c3 a83e fc0b 123e
00000090: 63c5 2fbe db9b 133f 72af 183f 0ed0 303f
000000a0: 6077 6a3e 4f58 f53e 9df9 ab3c b487 4e3f
000000b0: cfeb b43e 6605 66bd bdb6 e33e f124 d33e
000000c0: edec 9f3e 79e0 c33e ac02 a93d e8a4 f43e
000000d0: 83af bfbd ba04 fa3e f7ab 8e3e 9140 e33e
000000e0: be56 e63e 7fa8 c43e af5c f93e 00d0 de3e
000000f0: 0f57 bc3e 6ffe a43e f89e 73bc 723d 843e
00000100: db96 b83e c3d1 5b3f 3a0d 813e f091 043f
00000110: a15a f93e 5b7b b93d 1006 973e adf3 6a3e
00000120: b59f 073f 4de3 cd3e 5d5c 443e 021d d23e
00000130: e264 273e b7fb a13e a25e eb3f 5be3 863e
00000140: 8f57 b43e 3607 2f3e 1d68 d43e 5041 f03e
00000150: 5d53 b9bb f1d7 ed3e cfae c03e 2a1a 2c3f
00000160: f6c5 edbd fa9d 983e 998d 633e d106 b53e
00000170: 477a 103d 52ba 78bd 91ad 8c3d d1f7 053f
00000180: 1c71 fd3d 1cc1 bbbd 610c c33e b9b6 963e
00000190: fe9f c43e 5cc9 85bd 7d06 a93e 44b2 a93c
000001a0: f17f 273f 8ff5 9b3e b0ab 8f3e 6bcf 633e
000001b0: 3e1f 0f3f ad71 303e b58b da3c 616e 2bbe
000001c0: b505 873e 2b0a 203e 1c4d 963f 8424 e43e
000001d0: dc7c aa3e 30a6 b53e b679 e43e ea08 453e
000001e0: ff0b 603f 89e1 a83e d8a5 dd3e dfa2 9c3c
000001f0: 6bb4 043f 2f9a e03e 8472 113f 9a5b e73e
0.043536715 0.44081253 -0.118253276 0.26645604 0.38035336 0.35359648 0.22289144 -0.07710816
0.2859074 1.3780761 0.423125 1.0854195 0.13984783 0.111795254 0.2351126 0.35211182
0.13368899 0.32772347 0.3349382 0.12564062 0.60316634 0.09240296 0.30710587 0.42918637
0.46919727 0.19506761 0.7273217 0.29377022 0.2380438 0.12585883 -0.0844808 0.04237768
0.27442852 0.8137262 0.3296182 0.14262384 -0.17165141 0.5765969 0.5964271 0.69067466
0.228971 0.47918937 0.020993048 0.80675817 0.35336158 -0.056157492 0.44475356 0.41239122
0.31235448 0.38257197 0.08252463 0.47782063 -0.09359648 0.4883173 0.27865574 0.44385198
0.44988054 0.38409802 0.48703524 0.43518066 0.3678517 0.32225367 -0.014869444 0.2582813
0.36052594 0.85866946 0.25205404 0.5178518 0.48701957 0.09056731 0.29496813 0.22944517
0.5297807 0.4021248 0.19175859 0.41037756 0.16347077 0.31637356 1.8388255 0.26345333
0.35223052 0.17092595 0.41485682 0.4692483 -0.0056556896 0.46453813 0.37633368 0.67227423
-0.11610024 0.29808027 0.22221984 0.35356763 0.035272863 -0.060724564 0.06869043 0.5233126
0.123750895 -0.09167692 0.38095382 0.2943628 0.38403314 -0.06532547 0.33012763 0.020714886
0.654296 0.30460784 0.28060675 0.22247092 0.55907047 0.17230864 0.026677946 -0.16741325
0.26371542 0.15628879 1.1742282 0.4455911 0.33298385 0.35478354 0.44624108 0.19241682
0.87518305 0.3298457 0.4329059 0.019120632 0.51837796 0.43867633 0.5681536 0.45187074

weight f4 [64, 128]
00000000: f6be 3b3d ba71 513a d298 053e 65d5 663d
00000010: c3fc 0d3e cb8f 03bc f67e 0c3e 8e7b aebd
00000020: 7bb7 c63d 280c 3b3e 888d ba3d 4751 d93d
00000030: 38ac 8f3d 1188 553d 49b4 24bb 738d b33d
00000040: 6a75 01b9 2244 c3bc a38d aa3d 7a51 1fbb
00000050: 2b21 063e 264a b33d 9096 1f3e 60ca f33d
00000060: 1ae6 193e 1d97 d03d 3708 293e 81cf 003e
00000070: d67a b33c b163 5c3d 5448 183e e2e9 98bc
00000080: 034d e93d 179e d33d b225 b73d 4ddb f33d
00000090: 7434 1d3e 4f78 293e 22c6 083d 17f1 1c3e
000000a0: c226 983d 041c 173e 590b a4bb 91a4 423e
000000b0: b4f4 673d bb78 78bd ca20 973c 1701 31bc
000000c0: aeb6 ad3d 2251 ba3d 0ff8 953c f33c 083e
000000d0: 5422 24be daeb 023e a0df df3d 9637 b53d
000000e0: aca6 133d 9415 043e 44e2 343e 6449 ac3d
000000f0: a70b 0c3e 2944 fd3c 6536 f73d 78fb a4bc
00000100: 4cbd 4dbc 7754 cf3d 5938 ad3d 3c0c f83b
00000110: 4c51 633e d76d 2f3e 987c cf3d c939 0a3e
00000120: e280 e23d 1df5 0d3e 4cea 46bc b619 2d3d
00000130: 2ca7 173d c736 2dbd 77ba 943e 2bda e33d
00000140: f999 093e 59a7 263d 9487 3d3c c204 6c3d
00000150: 1238 1f3e 8a02 df3d e7cb cb3d 67d4 0c3e
00000160: 0f1d c63d 75f6 ba3d 9615 053d e9dc f93d
00000170: 8834 bc3b bf43 23ba fe8e 74bd c946 283e
00000180: b8d6 c03d 32e0 f23c c633 d4bc d19e e73d
00000190: d672 f33d 4e60 b7bc 3745 583d 974f 42bc
000001a0: 222a 0f3e 9d7b 2d3e 1e82 d03d 4619 2ebc
000001b0: ece8 643d 022d bc3d ff48 f23d 6b2b fdbd
000001c0: 8152 303b b115 e6bc d64f 013e 0bf6 3f3d
000001d0: ee32 913d ab4a 933d be31 be3d f476 24bd
000001e0: d33c b83d fed8 b23d e4ca a23c 485b 1e3d
000001f0: 56e6 ec3d fa8a dd3d 3c1f 8a3d 0040 923d
00000200: 855f bb3d 4dee ca3d d44c 2e3e c646 a13d
00000210: 292b b43d 5ac2 1e3e 5166 293e 6160 2fbd
00000220: 2fae 5f3e 32bc 993e 85ba d23d 6c13 663e
00000230: f1c9 503d 2ca3 9d3d fb68 103e 4e31 553d
00000240: eacf cb3d 99e6 183d b22b ddbc 6f22 6e3d
00000250: 030d 4d3e 5f97 923d eeb9 b03c 792e b93d
00000260: f40f 1f3e 3d2f ca3c ab1a 4a3e 1365 0c3e
00000270: a5ae 243c 2f8e eb3d fc2a 0d3d b704 c33b
00000280: 34d1 ef3d 91e5 313e 5b44 f13d 2d83 0c3e
00000290: a8fc cb3d 2ff2 4b3c 54dc a33d c5c7 5d3e
000002a0: 0f9b 1e3e 34d6 063e b648 823d 95af f43d
000002b0: 077c e83a 6e31 1f3d 45f2 96bc ad66 ee3c
000002c0: 0067 a03c 24f4 a03d 0f87 abbb f1f1 483d
000002d0: 6346 dcbd b63b 453d 9dac 2d3c f6d6 283e
000002e0: 7666 fb3d bcee e63d da30 463e c1c5 683d
000002f0: db05 f83d ad15 95bc ca37 7f3d 889a 033d
00000300: 0822 d13d a248 683e 47fb 8f3d 45e4 793d
00000310: 953f ac3d 2058 4a3e 1932 d53c 6b2e 1c3e
00000320: 70ab 3e3e da81 ee3c f49d ec3d 2815 b33c
00000330: 744a b23d 9ead ce3d 86bb 853e 025b 2d3e
00000340: c1e9 d43d ce8e 003d eccd fd3d c39e 423e
00000350: ba2f 203d 8818 3a3d d564 0d3e e215 8c3d
00000360: 7ce0 6e3d 6b98 223d adc4 563c b0d8 c83c
00000370: 9e67 963c b64c 1f3d ea30 ba3d 17e9 c13d
00000380: bc83 053e c9fe 3b3d 308a 0f3e 6cbb e53d
00000390: 2bd0 f63d 1b34 c73d 0b10 db3d f34e 003e
000003a0: 9764 413e d63e 9f3d db7c 10bd fc45 193c
000003b0: b428 f13d e57b 1abd b30e b83a a79e a4bc
000003c0: 3dfd c93d 7c09 4f3d 5689 893e 736b eb3d
000003d0: 43f8 e83d c732 033e 9f28 533d 68a5 173d
000003e0: 9727 3c3e 92f2 bb3d 2af0 253e 6c36 3a3e
000003f0: 3a7f 503d 2b64 883d fab4 203d 9e7b 023e
0.04583641 0.0007989664 0.13046578 0.056355853 0.13865952 -0.008029888 0.13720307 -0.0851966
0.09702965 0.18266356 0.09109026 0.106112055 0.0701527 0.052131716 -0.0025131872 0.08767214
-0.00012346139 -0.0238362 0.08327796 -0.0024310038 0.1309859 0.08754377 0.15584779 0.11903834
0.15029183 0.101850726 0.1650704 0.12579156 0.021909159 0.05380601 0.14871341 -0.018666212
0.11391642 0.103328876 0.08942737 0.11907063 0.1535204 0.165498 0.03339208 0.15326343
0.074292675 0.14756781 -0.0050062356 0.1900809 0.05662985 -0.060662013 0.018448252 -0.0108034825
0.08482109 0.09097506 0.01830676 0.133045 -0.1602872 0.12785283 0.10931325 0.08848493
0.036047623 0.12898856 0.17664438 0.08412436 0.1367632 0.03091629 0.12070922 -0.02013944
-0.012557339 0.10123532 0.08458013 0.007569818 0.22198981 0.17131744 0.10131186 0.13498606
0.11059739 0.13863035 -0.012140822 0.042260848 0.037024662 -0.042288568 0.2904851 0.111255966
0.13437642 0.04068694 0.011567969 0.057621725 0.15548733 0.10889156 0.09951001 0.137529
0.09673511 0.09129039 0.03249129 0.122003384 0.005743567 -0.00062280515 -0.05970668 0.16433252
0.09415954 0.02964792 -0.025903594 0.11309589 0.118871376 -0.022384789 0.052800383 -0.011859796
0.13980916 0.16941686 0.10181068 -0.010626143 0.055886194 0.09188272 0.11830329 -0.12361797
0.0026904645 -0.028086515 0.12628111 0.046865504 0.07089792 0.07191976 0.09286831 -0.040152505
0.08995976 0.08732794 0.019872136 0.03866127 0.115673706 0.10817523 0.06744239 0.07141113
0.09149078 0.099087335 0.17021495 0.07874827 0.08797295 0.15503827 0.16542937 -0.042816523
0.2184379 0.30026394 0.10289482 0.22468346 0.050973836 0.07697138 0.14102547 0.052048974
0.09951766 0.03732929 -0.026998375 0.058138307 0.20024495 0.07157778 0.021573033 0.09042067
0.1553343 0.024680728 0.19736736 0.13710432 0.010051404 0.11501729 0.03446482 0.00595149
0.11709824 0.17372729 0.11780616 0.13721915 0.099603 0.012447878 0.08001009 0.21658237
0.15488838 0.1316765 0.06361525 0.11947552 0.0017737158 0.0388655 -0.01842607 0.029101694
0.019580364 0.07859066 -0.005234606 0.04905886 -0.10755613 0.048152648 0.010600236 0.16488251
0.12275402 0.11276004 0.19354573 0.056829218 0.12110492 -0.018198812 0.062309064 0.032129794
0.10211569 0.22683957 0.07030349 0.06100871 0.08410565 0.1976018 0.026024865 0.15252082
0.18620086 0.029114652 0.11553565 0.021860674 0.08705607 0.100917086 0.26119632 0.16929248
0.103961475 0.03138619 0.12392792 0.19005875 0.039108016 0.04543355 0.13807996 0.06840111
0.058319554 0.03969614 0.013108415 0.024517387 0.018359955 0.038891517 0.09091361 0.094682865
0.13038534 0.04589728 0.14017558 0.112173885 0.12051424 0.09726735 0.10696419 0.12530117
0.18886028 0.07775657 -0.03527532 0.0093550645 0.11775342 -0.03771581 0.0014042467 -0.020095183
0.098627545 0.050546154 0.26862592 0.11495104 0.11375477 0.12812339 0.05155241 0.037022978
0.18374477 0.09177126 0.16204897 0.18184823 0.050902583 0.066597305 0.039235093 0.12742469

bias f4 [64]
00000000: 13aa ca3e 2506 053f 63f0 05be f19d e53c
00000010: adbf 6b3e 3f98 49bd e400 d73e 27da bd3e
00000020: 855d dc3e f56d a53e 84bf 9ebd 59e6 e9bd
00000030: 3a68 d53e c424 483e 49d6 1cbd d3fb 0fbd
00000040: 33a4 06bd 110c 7e3e 7e34 3cbd c27f 963e
00000050: 0d09 b73b a194 20be f8f2 9b3e 2e2f 863e
00000060: afae c6be 966e 2dbe 5716 0dbe aed6 96bd
00000070: 54aa ce3e 3087 943e 5791 75bd fb5b eb3e
00000080: f464 7dbd 0261 17bc 69c1 89bd 8cd8 e6bd
00000090: 40e9 8fbc d5e6 4ebd 48a1 d03e 0767 983e
000000a0: 4c95 26bd acc2 bc3b bbd9 09be 9491 933e
000000b0: 4d16 4f3e 4f28 00be b46c f4bd baa6 f2bd
000000c0: 4dc8 fe3e 75c2 d6bd d0ce bbbd 5bd0 56bd
000000d0: 4682 c53e 60cc cdbd b2c6 bc3e 7243 273e
000000e0: 4741 cbbd 78db 103f b02c dc3e 9fb2 fdbd
000000f0: dfde 923e 0bea 46bd 5dd4 debb a462 db3e
0.3958288 0.519625 -0.13079982 0.028029414 0.23022337 -0.04921746 0.41992867 0.370805
0.430401 0.32310453 -0.077513725 -0.114208885 0.4168108 0.19545275 -0.038290296 -0.035152268
-0.032871436 0.2480929 -0.045948498 0.29394346 0.0055857957 -0.15681697 0.30458808 0.2620787
-0.38805148 -0.16936716 -0.13778053 -0.07365166 0.40364325 0.2900939 -0.05995306 0.45968613
-0.061863855 -0.009239437 -0.06726343 -0.11271772 -0.017567277 -0.050513107 0.40748048 0.29766104
-0.040669724 0.0057605114 -0.13461964 0.28822005 0.20223351 -0.12515377 -0.11934796 -0.11848207
0.49762192 -0.104863085 -0.09170306 -0.052444797 0.38575953 -0.10048747 0.36870342 0.16334322
-0.0992456 0.5658488 0.43002844 -0.12387585 0.28685662 -0.048563045 -0.006800218 0.42848694

weight f4 [32, 64]
00000000: 044c 113c 54fe cebd 3030 263d f715 31bb
00000010: 76d3 d7bd 01e6 f43a c8e9 bbbc 6d2e 09be
00000020: e718 2abe d33a febd f70b debd e38f 50bd
00000030: 633a f8bd 6446 17be cb1b 97bd bc88 6ebc
00000040: faa6 11be dbcc 15be 1477 a83d 455e 82bd
00000050: 602a 9f3c 4445 05bd d62f 4dbd c518 2bbe
00000060: 1a82 4d3d 8519 a2bd 9d70 d2bd a46b 19be
00000070: d8bd 3cbd 652b 793c 42b2 babd 4e3e 07be
00000080: 4def cbbd 582f cdbc dce1 693d a041 0c3d
00000090: 008e 5e3c 8060 9c3c 046e 093d b898 67bd
000000a0: cc52 36be a452 04bd f5c8 f63c 2b1e 82bd
000000b0: 391e 653d 16eb 91bd dccd d2bd 9f61 4ebc
000000c0: b8ac 833d 4431 d1bd 1506 603c f8e4 7ebd
000000d0: 6576 2c39 54b4 81bd 944d 573d 88ae 873c
000000e0: 5a6e 90bd 6f20 e23c 248a 903b 3235 94bd
000000f0: 6459 7e3d 7697 92bd 0fbb a0bd 0171 a2bd
00000100: cbd1 633d 5cbd 6bbd b296 af3c 305d 143d
00000110: 987d 45bc e1c3 093d b4da 20bd 9e57 83bd
00000120: 9648 cb3c a3b7 2c3d 00e2 6e3c c0d1 853c
00000130: 987a 2238 ae77 2bbd f284 773d ea48 92bd
00000140: 3c9f 063e b860 223d 065c 69bd 6038 6a3d
00000150: 0893 1bbe 493d 3a3b c96c 153b 648b b43d
00000160: 48fe a6bd 2b6a d73d d872 a3bc 2e0e ba3d
00000170: 7a8f d23d c8b7 88bd d1aa 07bc a1a7 a53d
00000180: 883a cc3c b041 4b3c 0829 dfbd a896 6abd
00000190: 7da5 c9bd 003d da3c 6571 e03c af31 17bd
000001a0: 2a70 aa3d 3a6d 9d3d d4dd 7dbd 6e02 2b3d
000001b0: 348b a13c 56f8 083e c6b4 f5bc c012 d8bb
000001c0: 867a 64bd e2dd 9e3d 1061 7d3c 6f4d f03d
000001d0: d7e9 7bbd 8a78 9c3d 37d7 053d e011 09bd
000001e0: c6e1 32bd 509a 5b3d f20b b6bd 14d1 6d3d
000001f0: 9428 a8bb 0053 20bb 00a9 a53b 185f 923d
00000200: 1ccc 203e b7f0 5fbd 68bf 34be 19ee fa3d
00000210: 343d cd3d e55b 1a3e a868 223d eced 8a3d
00000220: 3dec 7f3d 0abb 893c 062e c6bc b8b5 0f3e
00000230: 66f1 1f3d 2251 553d 80ab 0abd acf5 30bd
00000240: 9c9c 803d 64d6 fc3d c447 d9bc 69a0 66bd
00000250: 2636 e0bd 5893 1fbd 0807 e33d 552b 023d
00000260: 565d 2ebd d6d1 233e f826 3a3e 272f 8f3d
00000270: abd0 413d 1a16 193d 3ae5 893d e5db 483d
00000280: 83bc 183e d2ca b33d 43ee 76bd 1459 f43d
00000290: 4b3d b23c c5ca ea3c 8833 7bbb 93fd ff3d
000002a0: e3d3 ec3d 5114 5ebb c394 e93c bc76 8d3c
000002b0: 224a 863c f743 6abd a091 69bc a470 163d
000002c0: edc5 403d 2fe0 b4bc 2117 383e bba6 dc3c
000002d0: c3cc cb3d 7b00 323e a182 383d cd43 aebd
000002e0: b4b8 82bd e8be 663d 2e26 c73d 679f a43d
000002f0: 6959 d43d d9c1 063e 7787 d3bd bc5d ba3b
00000300: 3371 c7bd 6b11 103e 5921 b7bc 564d 6fbd
00000310: 01b8 f63d 2325 b9bc 3b73 273d d21f b6bc
00000320: a764 c0bd d73f 593c ebcd f63d 1c36 eb3d
00000330: 46f5 b5bd 5b1f 1b3c 4b97 303e 38a6 073d
00000340: 78d6 99bc 926a 133e 9000 06be 92d5 df3d
00000350: cc20 98bd 6447 17bd e6e6 e7bd ae88 c4bc
00000360: f13a 44be 6c6f adbc 24b8 443d c2dd 7fbd
00000370: 6839 133e 48d1 0d3d d9d6 723d 3a9c a5bd
00000380: a00f 8b3c 90ef a63d 023d cdbd dcf6 bd3d
00000390: b40d 823c b8c7 b1bc d2f6 f43d 7948 b93c
000003a0: 3b93 163e ecfc 673d 446f cf3d 5476 f6bc
000003b0: c7b3 30bd 4856 d4bc 9a43 be3d 00ac 523d
000003c0: 6657 9ebd bd17 60b9 58a5 853c 2b16 253d
000003d0: 93d5 083e eb9e f53d 608a 48bd 82d5 ecbd
000003e0: ee5e fcbd 4673 df3d 3145 ec3c 8a63 0a3d
000003f0: 3769 b23d 96ac 8ebd 3c55 fa3b 0d8e 10bd
0.008868221 -0.10107103 0.0405733 -0.0027021149 -0.1053838 0.0018684269 -0.022938624 -0.13396616
-0.16611062 -0.124135636 -0.10842126 -0.05091847 -0.121205114 -0.14772946 -0.07378348 -0.014558967
-0.14223853 -0.14628927 0.08225837 -0.06365637 0.019429386 -0.03253676 -0.050094448 -0.16708668
0.050172903 -0.07915024 -0.102753855 -0.14982468 -0.046079487 0.0152081 -0.09116031 -0.13207361
-0.099577524 -0.02504699 0.057100162 0.034242272 0.01358366 0.019088984 0.033552185 -0.05654213
-0.17805022 -0.032305375 0.03012512 -0.0635341 0.055937026 -0.07124917 -0.10293171 -0.012596517
0.06429428 -0.10214475 0.013673325 -0.06223008 0.00016447304 -0.06333223 0.05256422 0.016562715
-0.07052298 0.027603356 0.004410999 -0.07236709 0.06209697 -0.07157795 -0.078481786 -0.0793171
0.055619996 -0.057553634 0.021434162 0.036221683 -0.01205387 0.03363407 -0.03927107 -0.06413196
0.024814885 0.042167317 0.01458025 0.016335368 3.8737984e-05 -0.041862182 0.06042952 -0.071428135
0.1314668 0.03964302 -0.056972526 0.05718267 -0.15192807 0.0028417876 0.0022800437 0.08815649
-0.08153969 0.10518297 -0.019952223 0.09084736 0.10281272 -0.066756785 -0.008280472 0.08088613
0.024930254 0.012405798 -0.10896498 -0.057272583 -0.098460175 0.026640415 0.02739782 -0.036912616
0.08322175 0.07686849 -0.06197913 0.041750364 0.019719698 0.13375983 -0.029993426 -0.006594032
-0.05578091 0.077571645 0.015465036 0.11733519 -0.061502304 0.076401785 0.032675948 -0.033464313
-0.043672346 0.05361396 -0.08888997 0.05806072 -0.0051317904 -0.0024463534 0.0050555468 0.07147044
0.15702862 -0.054672923 -0.1765114 0.12252445 0.10021439 0.15074117 0.03965059 0.06783661
0.062481154 0.01681282 -0.024191868 0.14034164 0.039048575 0.052079327 -0.03385496 -0.04320304
0.06279871 0.12345579 -0.026523478 -0.056305323 -0.10947828 -0.038958877 0.110853255 0.031779606
-0.04256948 0.15998015 0.18178928 0.069914155 0.047318142 0.037374593 0.067331746 0.049037833
0.14915662 0.08778919 -0.060285818 0.11931053 0.021757742 0.028661141 -0.0038330276 0.12499537
0.11563852 -0.0033886621 0.028513318 0.017268531 0.016392771 -0.057193723 -0.014255911 0.036728516
0.047063757 -0.022079555 0.17977573 0.026934972 0.099511646 0.17382996 0.045046452 -0.08509026
-0.063828856 0.056334406 0.09724079 0.08038216 0.10368616 0.13159885 -0.10328572 0.0056874435
-0.09738388 0.14069144 -0.022354769 -0.058423363 0.12046815 -0.022600716 0.040881377 -0.02223197
-0.09394198 0.0132598495 0.120509945 0.1148493 -0.08884673 0.009467925 0.17245214 0.033117503
-0.018779024 0.14396122 -0.13086152 0.10929407 -0.074281305 -0.036933318 -0.11323337 -0.023990955
-0.1916311 -0.021171294 0.048027173 -0.062467344 0.14377367 0.034623414 0.059286926 -0.080864385
0.016975224 0.08151162 -0.10021402 0.092756 0.015875675 -0.021701679 0.1196114 0.022617565
0.14704601 0.05663769 0.10128644 -0.03008572 -0.0431402 -0.025920048 0.09290238 0.051433563
-0.07731514 -0.00021371148 0.016314194 0.040304344 0.13362722 0.11993202 -0.04896009 -0.11564161
-0.12322794 0.109106585 0.028841587 0.033786334 0.087114744 -0.06966512 0.0076395553 -0.03529172

bias f4 [32]
00000000: 1609 3cbe f341 383e 0f97 a63e a923 b33e
00000010: 79c6 db3e eaed 373c bde4 be3e 1c73 08be
00000020: 5351 b03e 4037 a33e 3c11 39be 202e cf3b
00000030: 51a5 c13e 0fb7 853d 437c 25be e21d 0d3c
00000040: 7f77 c83e 3d89 7d3e e755 a9bd e9af 29be
00000050: 40b8 73bc 83cc 8d3e a5de 8e3e ce0f 9abb
00000060: f8e3 893a 3220 993e 02fc 2ebd 74ce 173d
00000070: 08e8 773e 8d73 613d 7c64 cc3d 6432 c83e
-0.18362841 0.17993908 0.32537124 0.34988144 0.4292486 0.011226157 0.37283888 -0.1332516
0.34437045 0.3187809 -0.1807298 0.006322637 0.3782144 0.06529056 -0.16160683 0.008613082
0.39153668 0.24759383 -0.08268338 -0.1657101 -0.014875472 0.27695093 0.2790424 -0.004701591
0.001052021 0.29907376 -0.042720802 0.037062123 0.24209607 0.05504184 0.099801034 0.39100945

weight f4 [1, 32]
00000000: 5df1 c2bd c6f4 0d3d 6d1d 913d db53 1c3e
00000010: 143c b23d 7ff8 cfbd 0bd8 153e c1b2 e4bd
00000020: 84bb 543e 4c1f 043e c573 7dbc 12fa f2bd
00000030: f259 4b3e db39 9bbc db3b edbd 9846 613d
00000040: 2911 a23d 5a1c ed3d 127f bcbd b32b ae3d
00000050: 4da4 063b e05b c43c d36f 0f3e 728d 42bc
00000060: 8a4a febc 43ad 4b3d e82d 083d 7758 1a3e
00000070: 035d 543d 2c69 c5bb 41e7 813d 5cd3 af3d
-0.09518693 0.034657262 0.07085691 0.15266363 0.08702865 -0.10154819 0.14633195 -0.11166907
0.20774657 0.12902564 -0.015469496 -0.118641034 0.1985853 -0.018948486 -0.11583682 0.054998964
0.07913429 0.11577673 -0.09203924 0.08504429 0.0020544708 0.02396959 0.14007501 -0.0118745435
-0.031041402 0.049725782 0.033246905 0.15072809 0.051846515 -0.0060245004 0.06342936 0.085852355
